[net]
batch=128
subdivisions=2
enclave_subdivisions=2
gradient_update_clip=0.5

height=32
width=32
channels=3
max_crop=32
min_crop=32

hue=.1
saturation=.75
exposure=.75

learning_rate=0.2
#burn_in=400
policy=poly
power=4
max_batches=10000
momentum=0.9
decay=0.0005

[convolutional]
batch_normalize=1
filters=32
size=3
stride=1
pad=1
activation=leaky

[maxpool]
size=2
stride=2

[convolutional]
batch_normalize=1
filters=16
size=1
stride=1
pad=1
activation=leaky

[convolutional]
batch_normalize=1
filters=64
size=3
stride=1
pad=1
activation=leaky

[maxpool]
size=2
stride=2

[convolutional]
batch_normalize=1
filters=32
size=1
stride=1
pad=1
activation=leaky

[convolutional]
batch_normalize=1
filters=128
size=3
stride=1
pad=1
activation=leaky

[convolutional]
batch_normalize=1
filters=64
size=1
stride=1
pad=1
activation=leaky

[convolutional]
filters=10
size=1
stride=1
pad=1
activation=leaky

# [avgpool]

# [connected]
# output=512
# activation=relu

# [dropout]
# probability=.5

[connected]
batch_normalize=1
output=256
activation=relu

[dropout]
probability=.5

[connected]
batch_normalize=1
output=128
activation=relu

[dropout]
probability=.5

[connected]
batch_normalize=1
output=10
activation=linear

[softmax]
groups=1